checkpoints/netG_4x_epoch5.pth.tar (torch, 926154 bytes, 250 tensors)

initial.cnn.depthwise.weight f4 [3, 1, 9, 9]
000000 95 08 f2 3a 88 38 24 bc 5f e4 7f 3c c7 1f 99 bc
       0.0018465692 -0.010023244 0.015618413 -0.01869191
000010 4c cf 0a bc 05 16 e8 bc 9a 4a 4b 3c 7b dd 78 bc
       -0.008472275 -0.028330812 0.012407923 -0.015189524
000020 9d 6e 60 3c aa 9f 7a bc ae 3d b9 3c 6d 02 b4 bd
       0.013698247 -0.015296856 0.022612419 -0.08789525
000030 5f 9b 86 3d 21 85 b4 bc 31 e9 82 bc c8 9b c5 bc
       0.065726034 -0.022036137 -0.015980335 -0.024122134
000040 26 86 22 3b 64 88 ef ba 13 ec 23 bb f9 20 c7 bb
       0.0024799197 -0.00182749 -0.0025012537 -0.0060769287
000050 87 6e 10 bd 17 a4 5b 3d 3d d6 69 be c6 eb 64 bc
       -0.035261657 0.053623285 -0.22835632 -0.013972228
000060 cb 2f 84 3d b4 d3 38 bd 66 f7 07 3b b9 07 b9 bb
       0.06454428 -0.04512377 0.0020746826 -0.0056466726
000070 b7 a8 14 3d b6 7d 19 3d 01 7a 37 bc ff ce 26 be
       0.03629371 0.037473403 -0.011198522 -0.162899
000080 02 33 90 bd 80 77 a3 bc aa 00 22 3d f1 34 13 bc
       -0.07040979 -0.019954443 0.039551415 -0.00898479
000090 88 c8 24 bd 59 56 3c bd e6 36 0b be c9 18 6f be
       -0.040230304 -0.045980785 -0.13595161 -0.23349299
0000a0 9e 8b 25 bf 6b c0 8f be 25 ec 70 bd 65 cb 98 bd
       -0.64666164 -0.2807649 -0.058818955 -0.074606694
0000b0 2d 4c 60 bc 1e 8f 83 3c b1 e8 52 bc 09 24 77 3d
       -0.013690037 0.016059455 -0.012872861 0.0603371
0000c0 0a b4 22 bd a4 db 32 be d4 71 5f bd ef 86 72 bd
       -0.03972248 -0.17466599 -0.054551914 -0.059210714
0000d0 82 7f 00 bd fd ba 16 bc da 80 29 bb 3d 78 dc 3b
       -0.0313716 -0.009199855 -0.0025864155 0.0067282007
0000e0 f6 7a 33 bd dc ef 5b 3d ef ab 0d be d8 17 62 3d
       -0.043818437 0.053695545 -0.13835119 0.05519852
0000f0 a0 46 a5 3c ad e3 d6 3b 87 dd 38 3c 71 cf 50 bb
       0.020175278 0.006557903 0.011283285 -0.0031861926
000100 ff 12 9b 3c ed 3b 30 bc ac 3a a3 bb 3a 3a 65 bd
       0.018929956 -0.010756475 -0.0049813595 -0.055963732
000110 99 a9 12 bc 75 9b 81 3c 0f e4 c0 bb e7 42 8c bc
       -0.008951568 0.015821198 -0.0058865617 -0.017121745
000120 4d a5 10 bc cc 09 00 bc a7 86 95 3b 31 d4 25 bc
       -0.008828473 -0.007814836 0.004563171 -0.010121391
000130 f5 b8 4f bd f2 43 26 3c 10 a7 31 bc 5b 5c d7 ba
       -0.0507135 0.010148035 -0.010843053 -0.0016430722
000140 c5 46 e1 3b a5 53 ac bb c6 73 82 bc c5 e6 ba bc
       0.0068748915 -0.0052589946 -0.015924346 -0.022815118
000150 5e 3a 33 bd e5 2f 51 3d 23 54 43 3b 32 b6 78 3b
       -0.043756835 0.051071066 0.0029804788 0.0037950394
000160 77 de 5b bc e6 7e 18 bb 39 99 ad 3a 5d 4d 4f 3d
       -0.013419739 -0.0023268997 0.0013244516 0.05061089
000170 6e e7 b1 3c f7 c9 3e 3d 83 41 05 bd ae b1 0a bd
       0.0217168 0.046579327 -0.03253318 -0.033860855
000180 bc aa 16 bd 6a 52 54 bc f2 fd 18 bb 22 9d 4d bc
       -0.03678392 -0.012959102 -0.0023344723 -0.01254967
000190 cb 8a 91 bd e5 ad 33 be b6 79 5e 3d 21 89 ba 3e
       -0.07106551 -0.17546804 0.05431529 0.36432746
0001a0 8b a7 96 bc 3c 78 cc 3c ef 09 cb bc 8d cc 85 3a
       -0.018390438 0.024959676 -0.02478501 0.0010208056
0001b0 d5 96 81 3c 0a e2 72 3d c8 e9 08 3e 43 59 a4 3e
       0.015818993 0.0592976 0.1337043 0.3209935
0001c0 ba c9 e7 be a3 1c db bd b2 4c f1 3c 4d 2b 7c 39
       -0.45271093 -0.106988214 0.029455516 0.00024048724
0001d0 2b 64 84 3c 81 4d b1 3b 55 d9 d2 bc bf dd be bc
       0.016161045 0.0054108505 -0.025738398 -0.023299096
0001e0 fe 0b f3 bd de 59 79 bc 20 d4 af be 4d 3a 2f 3d
       -0.11867522 -0.01521918 -0.34341526 0.04278021
0001f0 cb da 53 bc 33 0e 25 3b 58 04 00 3c c2 6e ee b9
       -0.012930582 0.0025185465 0.007813536 -0.00045477418
000200 4a 89 88 3d 91 58 6e bd 10 a5 17 3f 15 6a 3c be
       0.06666811 -0.058189932 0.5923624 -0.18399842
000210 5c fd ac 3d 68 ec 5c 3c 1d 03 b5 b9 43 26 04 bc
       0.08446762 0.013484098 -0.0003452533 -0.008065763
000220 60 01 00 bd 07 13 c5 bc f2 47 ff bd 78 53 92 3e
       -0.03125131 -0.024056925 -0.12464894 0.28579307
000230 d6 b5 33 be c3 d4 dc bc e3 ad 19 bd 0c f1 96 3b
       -0.17549834 -0.026956921 -0.037519347 0.0046063717
000240 e1 70 69 ba e0 92 98 39 82 a8 e7 bb 27 a6 2d bd
       -0.0008905065 0.0002910113 -0.0070696482 -0.042394783
000250 e1 90 1a 3e 0d 2a 56 bd d6 21 78 bb cd 98 1e b9
       0.1509433 -0.052286197 -0.0037861965 -0.00015124977
000260 da ff 1b 3c c1 cd a5 39 69 88 c7 ba e3 af 9b bb
       0.009521449 0.0003162455 -0.0015223149 -0.004751192
000270 a5 0a 91 bc 0b 2b 16 3d 22 80 d7 bc 52 42 a7 bb
       -0.017705271 0.036662143 -0.026306216 -0.0051043415
000280 9f c0 e4 bb 97 d5 4b bb 20 cf 47 3c 16 28 2b 3d
       -0.00698097 -0.0031102651 0.012195379 0.041786276
000290 5f eb bb 3c 48 f4 f1 3c 1f 56 07 3d 4e 44 a0 3d
       0.022939382 0.029535428 0.033041116 0.07825528
0002a0 07 dd ca 3c ac df d7 3c 3b 29 d5 bc 26 bb 51 3c
       0.024763597 0.026351772 -0.026020637 0.012800967
0002b0 0c d8 77 3d 5b af 21 3d 7a 65 c8 3d 8a 12 1a 3d
       0.060508773 0.039473873 0.0978498 0.037615336
0002c0 4f 7a 5c 3d e0 6e bb 3d 35 2b 37 3d 3e 0d 40 3c
       0.05382758 0.09152007 0.04471894 0.011721907
0002d0 7c e3 a8 3d ea 9c 60 bc 40 c3 ba 3d f7 b2 0f 3e
       0.08246514 -0.013709286 0.09119272 0.14033113
0002e0 b0 11 f6 3d 2b 2b be 3d d6 73 bc 3d e1 fd 43 3d
       0.120150924 0.092855774 0.092017815 0.04784954
0002f0 42 bf 2e 3d fd 07 1a 3c d9 c0 2f bb 80 e7 ce 3d
       0.042662866 0.009401319 -0.0026817827 0.10102749
000300 fd bc a4 3d 0a 7a 13 3e 9e b4 bd 3d ef 10 d4 3d
       0.08043859 0.14402023 0.092629656 0.10354792
000310 ec 95 53 3c e6 32 00 3c ad fa eb 3d f1 a5 e0 3b
       0.012914162 0.007824635 0.11522422 0.0068557193
000320 93 9c b1 3d bc ec 3d 3e bf c3 15 3e fc f4 0d 3d
       0.08672442 0.18547338 0.14625452 0.034657463
000330 db d5 14 3d 21 b4 a5 3d 14 9a 78 3d 6e 23 cc bb
       0.03633676 0.080909975 0.060693815 -0.0062298095
000340 e6 77 2d 3d 48 65 6d 3d 16 67 25 3e 21 bd 6b 3d
       0.042350672 0.057957917 0.16152605 0.057553414
000350 93 8d 7a 3d c7 7c a8 3d 0c 2c a6 3d 17 35 32 3d
       0.061170172 0.082269244 0.0811387 0.04350766
000360 7c da eb ba e1 b3 32 3c 06 94 9e 3d aa a4 8f 3d
       -0.001799419 0.010907144 0.07743077 0.07013829
000370 fd 54 eb 3d 75 3d 03 3d aa b0 4c 3c 7e b0 5f 3b
       0.114908196 0.032041032 0.012493292 0.0034132297
000380 3e 37 19 3d 9e 73 e3 3c 1a 34 8c bc c3 78 ab 3d
       0.0374062 0.027765092 -0.017114688 0.08372643
000390 c8 9b 33 3d d1 93 06 3e 1f 64 be 3d 2f b2 ad bb
       0.043849736 0.13142325 0.0929644 -0.005300782
0003a0 84 f4 df 3c 30 1a 52 3c 93 01 10 3d 4d 4c cd 3c
       0.027338274 0.012823626 0.03515775 0.025060797
0003b0 ec fc e9 3b bb 84 8f 3d 23 97 c4 3d 70 3f 70 3d
       0.0071407463 0.07007738 0.095991395 0.05865425
0003c0 fe 18 63 3d 75 ac 0b 3c fe 62 94 3a
       0.055443756 0.008525004 0.0011321006

initial.cnn.depthwise.bias f4 [3]
000000 f8 e3 5e 3d 1b b5 0f bc bb 0b 02 be
       0.054416627 -0.008771206 -0.12699787

initial.cnn.pointwise.weight f4 [64, 3, 1, 1]
000000 0b 61 56 3e 34 3a 63 3e 12 3b d3 3d 5a 1e 7d be
       0.20935456 0.22190171 0.10314001 -0.2471861
000010 3e a1 62 bd 31 29 b6 3e 0c e9 8f be e3 bd 89 bd
       -0.055329554 0.35578302 -0.28107488 -0.06725671
000020 0d dc 7f be ea 17 cb be b9 79 29 3e 2e a9 43 be
       -0.24986286 -0.39666682 0.1655034 -0.19107506
000030 04 66 dd 3e 75 4a 36 be d5 67 fa 3d 95 4f 30 3f
       0.43241894 -0.1780184 0.12226836 0.6887143
000040 70 62 1c be 22 a0 16 3b 52 fb ce 3e 8d ee 0e 3e
       -0.15271926 0.002298363 0.40426117 0.13958187
000050 7c d5 b3 3d dc da 18 3f a3 5c bf 3e a3 b4 b1 3d
       0.08780953 0.5970895 0.37375364 0.08677032
000060 4a 1b ad 3d e9 79 db 3d 0c e6 99 3d 34 7c 8d 3c
       0.084524706 0.10716612 0.07514581 0.017271139
000070 67 e5 cd 3e e5 6a 99 3e fa 3e 95 bc a8 c1 a4 be
       0.40214083 0.29964367 -0.018218506 -0.32178998
000080 9d 14 45 3d 9a 63 94 3e ac 25 d4 3e 5d bf 0b be
       0.04811536 0.2898224 0.4143499 -0.13647218
000090 ea 24 9e 3e aa 83 ca be bd f2 36 ba 91 b2 b3 bc
       0.30887538 -0.39553577 -0.000697892 -0.021935733
0000a0 c8 eb df be 0c 10 67 be bb f3 06 3e d2 4f 0c 3f
       -0.43734574 -0.22564715 0.13178913 0.54809296
0000b0 9f 9a 6a 3d ca 1b 3b 3e cf ed 93 bc 51 3e d4 3d
       0.057276364 0.1827232 -0.018057732 0.103634484
0000c0 bf 6d 47 3e 04 b3 b6 3e ae a8 c4 bd 26 da 07 bf
       0.19475459 0.35683453 -0.096024856 -0.53067243
0000d0 cd 4b 0f 3e e7 d2 20 be 66 7a aa 3e 4e 1b b2 3e
       0.1399376 -0.15705453 0.33296508 0.34786457
0000e0 4c 87 05 bd d4 c5 f6 3d 66 b8 bb bd fc 81 4b 3c
       -0.032599732 0.120494515 -0.091660306 0.012421127
0000f0 30 5c 8e be 6b 30 05 be f1 45 b0 bd 5e aa cf be
       -0.27804708 -0.13006751 -0.0860709 -0.40559667
000100 91 2f 6f be 7b 0e 15 be d6 d0 56 3e 5a 43 b0 be
       -0.23357989 -0.14556305 0.20978102 -0.34426385
000110 d1 3a 49 be 23 76 aa be f5 51 2b 3d 63 a6 f1 bd
       -0.19651343 -0.33293256 0.041826207 -0.11799314
000120 24 df ac be 59 76 2b 3e 01 57 db bd 00 5e 39 3e
       -0.33763993 0.16744365 -0.10709954 0.18102264
000130 31 47 11 be dd 87 a8 be 49 c4 09 3e 5c d9 b4 be
       -0.14187314 -0.32916155 0.13453783 -0.35322082
000140 1b cf 97 be 0e ce a4 3e fd 7b 8d be 10 1f 1c 3e
       -0.29650196 0.32188457 -0.27633658 0.15246224
000150 dc 4c 2c 3e 0e 2c 6e bd d3 fe 36 bd 26 22 9a be
       0.16826195 -0.058147483 -0.044676613 -0.30104178
000160 83 67 aa be 5c 69 10 3e 4d 02 21 3c 00 67 c1 bd
       -0.33282098 0.14102691 0.009827209 -0.09443474
000170 cb b7 ca 3d fc 3a d0 be e2 02 bf be 28 eb 38 be
       0.09898337 -0.40670002 -0.37306887 -0.18058455
000180 05 30 9c 3c 5f 26 16 3d f7 45 a3 3e cd 28 74 3e
       0.019065866 0.036657687 0.31889316 0.2384369
000190 5e 75 7f bd 03 de 0c 3e 3d 55 7a be 70 c4 2f 3e
       -0.06236779 0.13756566 -0.24446578 0.17164779
0001a0 84 ab 94 3e ff 08 f9 bd a1 99 e2 3e b4 6a e0 bd
       0.29037106 -0.12159919 0.44257835 -0.10957852
0001b0 8b 2f a1 3d 62 93 af 3e a8 c5 5e 3e 15 f8 3e 3e
       0.07870396 0.34292132 0.21755087 0.18649323
0001c0 58 12 f2 be 55 69 8b 3d b8 f7 17 3b f2 30 be 3e
       -0.4727962 0.068072 0.0023188423 0.37146717
0001d0 a4 4e 3a 3b 56 9e 80 3c d1 eb 82 be 57 1e 70 3e
       0.002842822 0.0157005 -0.2557054 0.23449074
0001e0 45 0f 3f be 00 e7 59 bc 55 58 06 bd ff dc 62 be
       -0.18658169 -0.013299704 -0.032799084 -0.22154616
0001f0 4a 2e 8a bd 67 e7 9a be 31 3c 9c bb c1 17 d4 be
       -0.0674711 -0.3025467 -0.0047679176 -0.41424373
000200 83 8e 0f be a3 b2 f8 be 58 e7 78 3e 2a 34 82 be
       -0.14019208 -0.4857379 0.24307 -0.25430423
000210 50 7c 88 be 72 61 04 3e a8 22 2a bd 51 32 ba bc
       -0.26657343 0.12927797 -0.041536957 -0.02272907
000220 5c ca 19 3e 40 35 6d bc 49 0a 8f 3e 22 f5 39 be
       0.150186 -0.014478028 0.27937534 -0.18159917
000230 93 d0 93 3e 30 01 56 bd f9 06 e8 3c c3 64 f1 bd
       0.28870067 -0.052247226 0.028323637 -0.11786797
000240 46 df ed 3e 03 1f 00 be b3 b4 f7 3d a1 31 46 3e
       0.46459407 -0.1251183 0.120950125 0.1935487
000250 11 e9 3e 3d 46 62 31 be 5a 16 a5 be 31 62 4d be
       0.04660899 -0.17322645 -0.32243615 -0.20056988
000260 2e 10 84 3d 48 64 b6 3e 18 5b 97 3e 4b 37 92 bd
       0.064483985 0.35623384 0.29561687 -0.071394525
000270 8a 38 70 3e ab a4 93 3e f1 f6 85 3e cd 7c 15 3e
       0.23459068 0.2883657 0.26164964 0.14598389
000280 d8 2a 98 3d 2b 58 74 3c a2 b9 b1 bd ac 02 a0 bd
       0.07430047 0.014913599 -0.08677985 -0.078130096
000290 e7 56 de ba f8 45 88 be 62 f2 52 bc af 47 8b be
       -0.0016963155 -0.26615882 -0.012875171 -0.27203128
0002a0 c4 59 6a 3e 75 7d 87 3e 7b 99 28 3d 6a c1 9a be
       0.22885805 0.26462904 0.041161995 -0.30225688
0002b0 7d 45 af bd 4f 62 61 3e bf 2f df bd 41 0e 17 be
       -0.08558176 0.22010158 -0.10897779 -0.14751531
0002c0 a8 e0 2e 3d df b8 d1 3e 2f 64 14 3d 0f db 82 be
       0.042694718 0.40961358 0.036228355 -0.25557753
0002d0 cc 79 f9 3e 93 5f e6 be 30 28 13 be ca 9d 5e 3e
       0.48725736 -0.44994792 -0.14370799 0.21739879
0002e0 00 ed 9f bd 46 0a 17 be b9 c4 ed 3e 47 92 17 be
       -0.07808876 -0.14750013 0.4643915 -0.14801894
0002f0 b3 be 55 3e 57 cb 43 be 09 c3 9f 3e 42 86 12 be
       0.20873527 -0.19120537 0.31203488 -0.14309028

initial.cnn.pointwise.bias f4 [64]
000000 5b 2a 94 3e 1a a1 c3 bc 77 9c 85 3e 79 25 11 3e
       0.28938565 -0.02388053 0.26095936 0.14174451
000010 32 01 3a 3d b2 82 13 bb e9 ac d4 3d 0e 20 8b 3d
       0.045411296 -0.002250832 0.103845425 0.06793223
000020 2c c5 1e be 0e 5d 48 bd bf 40 9d be b1 18 36 be
       -0.15504903 -0.04891687 -0.3071346 -0.17782857
000030 77 2d 67 be 09 02 a3 3d 36 e0 78 3e b1 13 5b bd
       -0.22575937 0.079593726 0.2430428 -0.053485576
000040 53 13 61 3e eb d3 c1 3c 8c d8 a4 bd 4b d7 8f 3e
       0.21980028 0.02366062 -0.080491155 0.28093943
000050 e8 b0 9a be 75 d3 c1 3d 06 7a 96 3c d7 17 93 be
       -0.30213094 0.0946416 0.018368732 -0.28729126
000060 d5 cb bb be ac 9f ab 3e 4e df b1 3e 0d e4 3e be
       -0.3667895 0.33520257 0.3474068 -0.18641682
000070 a8 ec fb bd 9f e1 37 bd ed 97 9c be b3 a0 ed 3d
       -0.12300998 -0.044892903 -0.3058466 0.116029166
000080 de 67 7e be d0 6a 81 3e 38 2e 39 3d 0c 80 a6 be
       -0.2484431 0.25276804 0.045210093 -0.32519567
000090 ad 4c ae 3d fb 5e 8a be 1c c7 79 be 59 32 8d bd
       0.085107185 -0.2702559 -0.2439236 -0.06894369
0000a0 bc d4 84 be 51 36 a1 3e e8 9b 76 bd 71 08 99 ba
       -0.25943553 0.31486753 -0.060207278 -0.0011675489
0000b0 be a4 1a 3e 37 a2 28 3e 84 ac 2a be bc 40 8f 3e
       0.15101907 0.1646813 -0.16667372 0.27979076
0000c0 72 2c 26 3c c3 e2 0f bc 26 3a 85 be 45 6c 82 bd
       0.0101424325 -0.008782092 -0.26020926 -0.06368307
0000d0 8c 06 36 be 30 f5 88 3e 41 6e 0e be 0a 08 e8 3e
       -0.17775935 0.26749563 -0.13909246 0.45318633
0000e0 05 9d 09 be 61 17 28 be b0 a4 03 3e c6 27 a0 bc
       -0.13438804 -0.16415168 0.12855792 -0.019550215
0000f0 2b b6 2c 3d 99 a0 c7 3e 1b c6 5e 3e c1 21 94 be
       0.042165916 0.38989714 0.21755259 -0.28932002

initial.act.weight f4 [64]
000000 37 51 1e 3f 15 ea 2c 40 15 44 db 3e 3c 8d f8 3e
       0.61842674 2.7017872 0.4282538 0.48545253
000010 30 6a 68 3e 5c 6f 1e 3b ef d0 d9 bd 19 7b 8a bc
       0.22696757 0.0024175262 -0.10635554 -0.0169044
000020 96 c5 af 3c f6 1c f8 3f 37 42 20 3e bc b3 12 3e
       0.021456521 1.9383838 0.15650259 0.14326376
000030 f8 1e 4e 3e a3 4b 89 3d ff e9 71 3f 65 a6 09 3e
       0.20129001 0.0670388 0.94497675 0.1344238
000040 a0 0b 77 3e 82 5b 53 3f 1c ad 65 3e c8 44 fd 3c
       0.24125528 0.82561505 0.22429317 0.030916587
000050 ae c3 7f 3e 8e f5 07 3f c2 10 c8 3d 80 37 4f 3e
       0.2497699 0.5310906 0.09768821 0.20236015
000060 f6 11 39 3e 04 e8 9d 3e 40 9a a2 3e 29 c0 6d 3e
       0.18073258 0.30841076 0.31758308 0.23217835
000070 76 30 de 3d fe be 9f 3f 50 8c 41 3e f7 a1 68 3f
       0.10849087 1.2480161 0.18901181 0.9087214
000080 5f 25 1f 3f 66 bf 11 3e 42 d6 54 3e 73 8f c9 3e
       0.621664 0.14233169 0.20784858 0.39367256
000090 cd 6e 70 3e 4c e7 1f 3f 3d fb 9a 3e 26 6d f7 3f
       0.23479767 0.62462306 0.30269805 1.9330184
0000a0 65 55 90 3e bc b9 61 3f 52 37 a4 3d 49 dd 73 3f
       0.2819015 0.88174033 0.08018364 0.9525953
0000b0 a5 c0 11 3e 7e c0 11 3e 35 b3 9f 3c 02 28 1a 3e
       0.14233644 0.14233586 0.019494632 0.15054324
0000c0 b7 0f c9 bc e2 52 4d 3e 2f a0 14 3f e4 8f 13 3e
       -0.024543626 0.20051149 0.5805692 0.14410359
0000d0 eb e2 c5 3c ea 9c fb 3e f7 ab aa bc 95 9a d2 be
       0.024156054 0.49143153 -0.020833952 -0.41133562
0000e0 a0 aa 1c 3e fe b8 b5 3f a5 c0 11 3e 2e a3 46 3e
       0.15299463 1.419708 0.14233644 0.19398186
0000f0 ad 9e 35 bd 92 d5 00 3f 0e 26 90 3f 10 ca 6d 3e
       -0.04434078 0.5032588 1.1261613 0.23221612

residual.0.block1.cnn.depthwise.weight f4 [64, 1, 3, 3]
000000 41 86 26 3d a0 b9 3c 3e aa 96 f0 3d 56 1f bc be
       0.04065538 0.18430185 0.11747487 -0.36742657
000010 7d cd 33 3e 64 e5 e8 bd 95 5b 83 be e3 ef 2c 3e
       0.17558856 -0.11371878 -0.2565581 0.16888385
000020 97 81 3d 3e fa 1a 9f bd ae 37 40 3d 9d 11 e1 3c
       0.18506466 -0.07768817 0.0469281 0.027474219
000030 c5 df 06 be 55 1f 19 3e 9b bb bc bc f4 f2 47 3e
       -0.13171299 0.14953358 -0.023038676 0.19526273
000040 d6 86 c7 3d c2 57 94 be 16 0a 88 bd de 54 8e 3c
       0.09742515 -0.28973204 -0.06642549 0.017374452
000050 74 ab ef bc d8 6c b5 3d ec 3d 0f 3e 25 78 3e 3e
       -0.02925656 0.08858651 0.13988465 0.18600519
000060 d3 7a 8f 3d 78 4d ae 3d 96 8c 1c 3e d0 8e 0d b9
       0.07005849 0.0851087 0.15288004 -0.0001350001
000070 99 fb 90 3e 6f 52 01 be 9f 90 8e bd 18 17 88 be
       0.28316954 -0.12629102 -0.06961178 -0.2658012
000080 bd 8d 6d 3d 7f 18 83 3e 51 c3 5c be bc 0d 49 3e
       0.0579965 0.25604627 -0.21558882 0.19634145
000090 78 90 60 3e 6e df 9a be a5 4c 71 3c 47 14 c3 bd
       0.2193011 -0.30248588 0.014727746 -0.09525352
0000a0 50 60 ab be 6e 8b a2 3c b9 63 90 3e 52 89 3e be
       -0.33471918 0.019841876 0.28201082 -0.18607071
0000b0 29 29 62 3e 9f a3 77 bd df b8 0d 3d 92 dd a8 be
       0.22086014 -0.060458776 0.034600135 -0.32981545
0000c0 a5 25 7c be a0 48 81 bd 4e 63 78 bd 27 76 e0 3d
       -0.24623735 -0.0631268 -0.06064158 0.10960036
0000d0 8c 7b 56 3e 0c fe 4a bd 57 01 2c 3e f8 42 3e bb
       0.20945567 -0.049558684 0.16797386 -0.0029031616
0000e0 f4 1d 1c be a1 2d c1 bd 23 02 c9 be 06 61 c8 bd
       -0.15245801 -0.09432531 -0.39259443 -0.09784131
0000f0 ca 06 ac 3d 82 5b da bb 70 d8 21 be dd 95 2e 3e
       0.083997324 -0.0066637406 -0.1580522 0.17049356
000100 6b a2 d8 3e 6d 9e 96 3e c2 77 e8 3d 87 cd 33 3e
       0.42311415 0.29417744 0.11350967 0.17558871
000110 9b be f8 3d c9 fd 08 be 8d f5 62 3d a8 de 8c 3d
       0.1214573 -0.13378061 0.055409957 0.06878406
000120 b1 9d 86 bd d1 52 57 3d d6 cb db 3c 66 6f 9e bc
       -0.06573046 0.052569214 0.026830595 -0.019340228
000130 92 06 7d 3c fb f5 2e bd 33 fa aa 3d 6f 7c fb bd
       0.015443461 -0.042715054 0.08348503 -0.12279593
000140 1c 93 13 3d 75 20 4b 3e a0 43 38 be 30 52 d1 bd
       0.036028966 0.198366 -0.17994547 -0.10220754
000150 4b 83 78 3e 82 85 68 3d 0c 50 1a bd 65 ef 6f bd
       0.24268834 0.056767948 -0.037673995 -0.058577914
000160 e1 e3 e0 bd 80 d3 1e bb 22 9e df bd 09 df d4 3b
       -0.109809645 -0.002423495 -0.10918833 0.0064963144
000170 e0 0c 92 3b ce fa 0b be 60 1f af ba e2 7b 18 be
       0.004457101 -0.13669893 -0.0013360791 -0.14891008
000180 d1 bb 94 3c 22 7b 9a 3e 2c e5 43 3e e6 62 0e 3e
       0.018155964 0.30172068 0.19130391 0.13904914
000190 c1 0a c3 bd 22 a6 a6 bd 9d 66 23 be 44 ec 5c bd
       -0.095235355 -0.08137156 -0.15957113 -0.053936258
0001a0 72 52 7f 3e 65 51 dd 3c 05 5e 15 3e 1b d7 2d be
       0.24933794 0.027016351 0.14586647 -0.16976587
0001b0 ab 46 48 be 73 92 7b bc a7 e6 da bd 6f 65 49 3e
       -0.19558208 -0.01535474 -0.10688525 0.196676
0001c0 36 21 52 bd c1 62 6b be 94 d5 f1 3d 4e 14 61 3e
       -0.051301204 -0.2298689 0.11808315 0.21980402
0001d0 b9 05 5f 3e 6e 1f 75 3d 0e d6 9a bd 78 e0 9c bd
       0.21779527 0.059844427 -0.07560359 -0.076600015
0001e0 4b 1a 45 3e 97 e1 52 be 32 70 1d be 32 04 e4 3d
       0.19248311 -0.20593868 -0.1537483 0.11133613
0001f0 86 bc 0e 3e ff 52 53 3c 91 6f dc 3d f0 7f cb bd
       0.13939103 0.012898206 0.10763467 -0.099365115
000200 a3 cc 38 3e 8b 48 55 3e 18 a4 d1 be ce bf 33 be
       0.18046813 0.20828454 -0.40945506 -0.17553636
000210 bd 8c a1 bd 3b c5 aa 3e 8c 46 7e bd 45 0b 2f 3d
       -0.07888172 0.333536 -0.062078997 0.042735357
000220 04 f2 a3 3e 29 d4 c3 3d 6d 59 3f be eb 26 9d 3d
       0.3202058 0.09561951 -0.18686457 0.07673439
000230 31 8e 33 3e e3 e1 72 be b6 95 75 be 33 f2 a5 3d
       0.1753471 -0.23718981 -0.23982891 0.081028365
000240 e9 b0 90 3c a5 72 28 3e 97 e4 a2 3d d4 4b bd bd
       0.017662482 0.16449983 0.07953756 -0.09242979
000250 e1 11 6a be e3 50 46 be e5 f2 b3 bd e0 d2 72 be
       -0.22858383 -0.19366793 -0.08786563 -0.23713255
000260 fa b7 87 3d 9c 88 91 bd c5 ac 70 3e 6b 4d 74 be
       0.066268876 -0.07106134 0.23503406 -0.23857658
000270 ea d2 a4 3e 05 7a ae 3d 95 20 2f 3e 9c f0 cf bd
       0.32192165 0.08519367 0.17102273 -0.101533145
000280 90 7a 44 be 86 b5 49 be 23 82 53 be dc 11 c7 3d
       -0.19187379 -0.19698152 -0.20655112 0.09720203
000290 4d 10 c4 bc 84 5b 71 be b5 65 40 bd 4a 40 95 3e
       -0.023933554 -0.23570067 -0.046971995 0.2915061
0002a0 44 57 57 bd 90 3b 90 3e 06 0a 09 be 13 83 54 be
       -0.052573457 0.28170443 -0.1338273 -0.20753126
0002b0 9c 05 79 be 12 e5 a3 bd 24 8f 48 3d 06 f6 42 3e
       -0.24318546 -0.08002676 0.048964635 0.19039163
0002c0 77 db 18 be ec 41 1a 3e de 3a 3a 3e e5 cd 90 bd
       -0.14927469 0.1506421 0.18186519 -0.07070521
0002d0 5a 35 a9 3d f5 b8 95 be 8a 96 a3 bd 4d 42 de 3e
       0.08262129 -0.29242674 -0.079876974 0.43409958
0002e0 8b af 78 3e 27 2a 08 be 38 a3 f8 3e a9 d4 00 3e
       0.24285714 -0.1329733 0.48562026 0.12581123
0002f0 97 9b 3a 3e f1 fd 34 be d8 7b 98 bb 81 f3 cf 3d
       0.18223415 -0.17674996 -0.004653435 0.101538666
000300 12 2d b9 3c e8 c9 c5 3e e4 8a 7f 3e 6c 87 6b 3d
       0.022604499 0.38630605 0.24955326 0.057502195
000310 ee b0 2e 3d 32 ca 5e be 86 2d fe 3c 73 d3 76 3e
       0.042649202 -0.21756819 0.031027567 0.24104099
000320 ad 52 57 3d cd 0a 3b be 76 b5 b4 bd 19 52 f4 bc
       0.05256908 -0.18265839 -0.088236734 -0.029824303
000330 cb bb e2 bd a0 da 99 bd 0d c7 07 3e 4f 55 cf 3d
       -0.11070975 -0.075124025 0.13259526 0.10123693
000340 2d 00 88 bd f0 02 8a 3e 62 46 ca be 3a db 75 be
       -0.066406585 0.26955366 -0.39506823 -0.2400941
000350 79 5e cc 3a 23 9b b7 bc 88 8e a0 be 5f bc a4 bd
       0.001559212 -0.022412842 -0.31358743 -0.080437414
000360 4e f3 6d 3e 33 ef bf be 80 00 8c 3e 15 b9 bc 3a
       0.23237345 -0.37487182 0.2734413 0.001439842
000370 69 8c 84 be 2a 48 90 be 2d b8 1e be 06 ea 85 be
       -0.25888374 -0.28180057 -0.15499945 -0.26155108
000380 bd 5c 16 3e e9 e5 bd bd 03 80 ae bc 78 1b ff 3c
       0.14683814 -0.092723675 -0.021301275 0.031141028
000390 e1 9b f2 3d 86 58 20 3e 81 14 23 be 01 0a 40 bd
       0.11846138 0.15658769 -0.1592579 -0.04688454
0003a0 60 1a b5 bc a8 e4 a7 3c ca c8 30 3e 62 db 13 be
       -0.022107303 0.020494774 0.17264095 -0.14439157
0003b0 58 e2 a8 bc 93 9c 8d bb 03 78 bf 3c 1c 02 fb 3c
       -0.020615742 -0.0043216436 0.023372656 0.030640654
0003c0 fe 31 47 bd 74 ad 86 3c 53 0d a8 bc 02 0f 6e bd
       -0.04863166 0.01644013 -0.020514166 -0.05811978
0003d0 51 2e 65 be 34 f9 d1 3d 15 0a b9 3e 2c 7d 49 be
       -0.2238095 0.1025261 0.36140504 -0.19676656
0003e0 3f d9 92 be 56 67 c7 bd 7b af 0e be 32 a5 0f 3e
       -0.2868137 -0.09736507 -0.13934128 0.14027861
0003f0 62 6c 6b be ac 2a 01 3d b5 98 65 3e d4 c9 6c 3e
       -0.22990564 0.031534836 0.22421534 0.23123866

residual.0.block1.cnn.pointwise.weight f4 [64, 64, 1, 1]
000000 15 cf 29 3d 3d 66 50 3d 9e fe c4 3d e9 43 45 3e
       0.041457254 0.050878752 0.09618877 0.19264187
000010 51 0b c5 be c6 cc e7 3d c6 53 8e bd 93 92 c5 3c
       -0.38485196 0.11318354 -0.06949572 0.024117744
000020 dc dc ca bc 21 6f ab 3d 68 c3 12 3d 8c 9c 00 3e
       -0.024763517 0.083708055 0.035830885 0.12559718
000030 e5 8a 80 be fc 41 f4 3d 02 46 a6 3d a3 82 78 3e
       -0.25105968 0.11926648 0.08118822 0.24268584
000040 78 86 42 bd 71 21 9d bd b8 b7 ca 3d 0e 0f 8d 3e
       -0.04749152 -0.07672394 0.09898323 0.27550548
000050 bb 99 4e 3e be b1 e0 3d ba eb 2f 3d 6c 5a dd bd
       0.20175831 0.10971402 0.042949416 -0.10808262
000060 bd 0e 18 be 7a ac da 3c 2c 54 1d bd 22 47 80 bd
       -0.14849372 0.026693571 -0.03841035 -0.062635675
000070 ec e0 94 3c 12 13 96 3c 27 19 05 3d a1 a7 e8 3d
       0.018173657 0.01831964 0.03249469 0.11360098
000080 d1 e0 ea bc e6 dc 03 bc b3 3f 17 ba c7 d8 07 be
       -0.028671654 -0.008048272 -0.0005769685 -0.13266288
000090 c1 62 49 3d e3 89 85 3e ae 87 6e 3d 8a dc 95 bc
       0.049166445 0.26081762 0.058234863 -0.018293638
0000a0 38 bd 1e 3d 07 3a 80 3d ff 3d 19 3d e2 bc 85 3e
       0.03875467 0.06261068 0.03741264 0.2612067
0000b0 36 1a 30 be 24 c7 f6 3d e2 cf 20 bc ce 73 7e bc
       -0.17197499 0.12049702 -0.009815188 -0.01553054
0000c0 f2 01 d3 be 90 98 a2 3d 3b ab 27 3e be fc 83 bc
       -0.41212422 0.07939255 0.16373913 -0.016111728
0000d0 4f 23 c4 3d 48 49 b2 bd 33 c8 54 3a 78 71 b9 bd
       0.09577047 -0.087053835 0.000811699 -0.090548456
0000e0 c4 93 4c bd 27 f2 62 3c 93 4e 8d bc a0 67 fa 3d
       -0.049945608 0.013851679 -0.017249381 0.12226796
0000f0 6a b8 57 3e e2 01 6a 3c 5d 0a 89 3e 18 7b 19 be
       0.21066442 0.014282675 0.2676572 -0.14988363
000100 64 aa 1e 3e 5f 54 a5 3d 65 9d 02 3e 7e 5c 1d 3d
       0.15494686 0.08072733 0.12755354 0.038418286
000110 15 56 f4 bd 20 bd 3b 3c ed 42 59 be 68 6c 04 3e
       -0.11930481 0.011458665 -0.21216936 0.12931979
000120 99 bd 76 bd 91 55 1d 3d ce a6 f0 bd 3d 08 88 bd
       -0.06023941 0.03841168 -0.117505655 -0.06642196
000130 a5 aa 27 be cf cf 1d bd 68 e4 d4 bc ad 19 3e bd
       -0.1637369 -0.03852826 -0.025987819 -0.046411205
000140 05 29 5a be a5 87 14 be 7b 5b a5 3d 9e 19 24 3d
       -0.2130471 -0.1450487 0.08074089 0.040063493
000150 d3 ef 64 3e ef 07 30 3d b2 e0 bb 3d f4 5e 6d be
       0.2235711 0.042976316 0.091737166 -0.23180753
000160 95 39 64 be b6 77 98 3b a3 94 18 3c 2e 0f 8e 3c
       -0.22287591 0.0046529425 0.0093127815 0.017341223
000170 31 cd 3d bd a8 ef c0 bd df 88 51 bd 7d 94 c2 bc
       -0.046338264 -0.09420711 -0.05115592 -0.023752445
000180 73 7b 1c 3d 95 d0 b7 bc f0 d5 90 3b 7c 49 f0 bc
       0.038203668 -0.022438327 0.0044200346 -0.029331915
000190 89 2f c6 3d 74 87 f5 bd ba 44 84 3e 3f 10 07 3d
       0.09677035 -0.11988726 0.25833684 0.032974478
0001a0 7c 3a db 3c b6 94 ff bc 21 73 2a 3d ad 87 0f 3e
       0.026761286 -0.03119884 0.0416137 0.140166
0001b0 be 57 17 be 39 91 11 3e 34 c2 2e bb 81 9b 98 3d
       -0.14779565 0.14215554 -0.0026666047 0.07451535
0001c0 38 58 02 be ee 10 bb 3d 87 82 19 3e ef 8c ea bc
       -0.12728965 0.091340885 0.14991198 -0.028631655
0001d0 97 7e cf bc dc 1f 86 3c 7a bf fc bc 39 f9 a6 bd
       -0.025328917 0.016372614 -0.030853022 -0.08153004
0001e0 19 5b 0e be f9 aa 21 bc e2 4e ba ba b1 4c f0 3d
       -0.13901938 -0.009867423 -0.0014214183 0.11733378
0001f0 ef 9b 57 3e d0 4a 64 bd bb d0 4b 3e 03 07 b0 3d
       0.21055578 -0.05573541 0.19903843 0.085950874
000200 3b 9e e9 bc 9c f8 13 ba e1 a9 7d be 6f 8b 95 bd
       -0.028517833 -0.00056446507 -0.24771835 -0.073019855
000210 fd b3 44 3e 7c 13 07 3e ca 4a 5a 3e 6a dd b5 be
       0.19209285 0.13191026 0.21317592 -0.35520488
000220 f4 43 e1 bc 4b 39 27 3c a5 1a 38 3d 33 cc 73 3d
       -0.027498223 0.010206531 0.044947285 0.05952091
000230 61 c9 6e 3d f9 cb 26 bd ed c3 48 be 35 52 02 3e
       0.05829752 -0.040721867 -0.1960599 0.12726672
000240 ad 9e 3e 3d 50 47 4e 3e c6 5f 67 3e 47 65 00 bd
       0.046538044 0.20144391 0.22595128 -0.031346586
000250 f4 b0 04 be 63 02 d8 bc e9 68 11 bd 0d f0 03 3e
       -0.12958127 -0.026368326 -0.03550044 0.12884541
000260 f6 72 21 3e 4d b6 ce 3b 86 42 a4 3c d3 e2 8e bc
       0.1576651 0.006308353 0.020051252 -0.017442143
000270 8d 81 49 bd 76 37 2a be e9 4f a4 3c 24 e7 83 bd
       -0.049195815 -0.16622719 0.020057635 -0.06440571
000280 97 62 e8 bc 08 76 f6 3d 94 d3 d9 3b 62 12 e8 3d
       -0.028367324 0.120342314 0.0066475365 0.11331631
000290 94 49 b1 bd bd ac 2d 3d db ea c8 3d 47 19 a3 3b
       -0.08656612 0.042401064 0.0981042 0.0049773785
0002a0 4f 4e 1c 3e f8 0c 34 be b9 19 95 3d fb 45 08 be
       0.15264247 -0.17583072 0.07280297 -0.13307945
0002b0 25 64 a4 3c 11 c4 37 3d 1d da 0c bd 4d 2a ac bd
       0.020067284 0.044864718 -0.034387697 -0.08406506
0002c0 1c 29 80 3e 53 b9 7a bd 33 b4 eb bd 55 b0 9e bd
       0.25031364 -0.061211895 -0.1150898 -0.077484764
0002d0 52 30 9c 3d 65 4d ca bd 96 83 a6 bd 52 fb a1 3d
       0.07626404 -0.09878043 -0.08130567 0.07909264
0002e0 b6 67 a2 3c e5 d1 b5 3c ea 33 f4 ba 33 f4 ad 3d
       0.019824844 0.022194812 -0.0018631194 0.08493843
0002f0 a8 5c aa bd 88 af a4 3b e0 a6 15 3d df 38 16 3d
       -0.08318454 0.005025808 0.036536098 0.03667533
000300 32 2f 0a bd 21 3b 8d 3d dc a2 0b 3e 9b f5 d5 bd
       -0.033736415 0.068960436 0.13636345 -0.10447236
000310 b0 c8 7d 3e 67 75 eb 3d 3f ab 8b 3e 6d 88 d3 bc
       0.24783587 0.11497002 0.27279088 -0.025821889
000320 e1 31 22 3c d4 11 0b bd 25 c9 97 3d 8e c6 a7 bc
       0.009899587 -0.03395255 0.07411412 -0.02048042
000330 33 02 95 bd 56 1e 36 bd 7b 4b bf 3d 2b 01 09 bb
       -0.0727581 -0.044462524 0.09340569 -0.0020905237
000340 cc c7 25 3e e0 f0 ac 3e 4a 19 0b 3c 9f ce ad bd
       0.16189498 0.33777523 0.008489916 -0.084866755
000350 ea ea 48 be 63 2b 4e 3d 56 31 65 3d cb bf 63 bd
       -0.19620863 0.050334346 0.055955254 -0.05560283
000360 1a 51 af bc 8e 00 88 bd 35 77 05 3d 74 19 8a 3b
       -0.021400977 -0.06640731 0.032584388 0.00421446
000370 25 94 fb 3b 1e d9 a2 3e 02 32 7f 3c 91 b7 17 3e
       0.0076775723 0.31806272 0.015575888 0.14816119
000380 3e df 8b 3c 8e 95 21 bd 60 4d 16 bc 73 45 80 3e
       0.017074224 -0.039449267 -0.009173721 0.25052986
000390 b1 f4 97 bb 77 ea 39 3e da 98 b6 bb 26 ee ad 3d
       -0.004637324 0.18155847 -0.0055724205 0.08492689
0003a0 43 0c c5 bd 9b 4f 0f 3e 9f 2d af bc e4 2c ac bd
       -0.09621479 0.13995211 -0.021384059 -0.08407
0003b0 dd 14 05 3e 76 69 92 bd 9e 04 c7 3d dd 19 0c 3e
       0.1299624 -0.07149021 0.097176775 0.13681741
0003c0 a2 cc 23 be 12 50 52 3e 7b ce 7c 39 63 f8 2d 3e
       -0.1599603 0.20538357 0.00024109513 0.16989283
0003d0 fc 9f 15 bc e2 95 0f 3e 63 bc 06 3d a4 8d 01 3d
       -0.0091323815 0.1402202 0.032894503 0.03162922
0003e0 92 66 ba 3d 93 4b 07 3e fa 6c 21 bc 3e c6 8e bc
       0.09101595 0.13212423 -0.009852642 -0.017428514
0003f0 a5 f9 6f bd c9 3c d9 bd ad 94 05 be b0 1f 7a bc
       -0.05858769 -0.10607297 -0.13044997 -0.015266344

residual.0.block1.bn.weight f4 [64]
000000 1e cf 15 3f be ce f0 3e 87 66 0b 3f 87 5d 25 3f
       0.5851916 0.47032732 0.5445332 0.64595836
000010 1a c6 04 3f 77 2f d3 3e a0 62 03 3f 2b a9 cf 3e
       0.5186478 0.4124715 0.51322365 0.40558752
000020 e1 c8 04 3f 8c 69 2e 3f 15 bd 04 3f 17 d6 f8 3e
       0.51869017 0.681298 0.51851016 0.48600838
000030 fd a3 1c 3f f6 37 1b 3f 8a 9a ff 3e 73 d4 c4 3e
       0.61187726 0.60632265 0.4992259 0.38443336
000040 4a 32 ff 3e 82 90 f2 3e 80 75 0c 3f 4e 30 23 3f
       0.49843055 0.47375876 0.5486679 0.6374558
000050 1e b0 e9 3e 13 ae 0d 3f d0 24 4a 3f ae e3 04 3f
       0.4564218 0.5534374 0.7896242 0.5190991
000060 34 c6 08 3f 5b ad 09 3f b2 72 e5 3e 51 5b 0a 3f
       0.53427434 0.53780144 0.44814068 0.5404559
000070 ec e2 03 3f ee ee e9 3e 20 93 f4 3e 26 4d 06 3f
       0.5151813 0.456901 0.47768497 0.5246147
000080 f0 6b 01 3f 16 24 d7 3e 7d 66 e2 3e a7 b8 11 3f
       0.50555325 0.4201972 0.44218817 0.5692238
000090 ce d6 1a 3f 9c 5c 11 3f 45 1f 4a 3f 89 d8 f7 3e
       0.60484016 0.56781936 0.78953964 0.4840739
0000a0 51 43 2f 3f fc 6a 20 3f f4 a4 f6 3e 28 53 0b 3f
       0.6846209 0.62663245 0.48172724 0.5442376
0000b0 71 64 0f 3f cd d2 10 3f ed e9 08 3f 26 3e 1b 3f
       0.56012636 0.56571656 0.5348194 0.60641706
0000c0 85 ee 39 3f 0c 2f eb 3e 8b f6 e7 3e 17 7c 04 3f
       0.72629577 0.4593433 0.45305285 0.51751846
0000d0 fd 5d 91 3e 04 eb 2c 3f e7 91 ab 3e a4 76 0e 3f
       0.2839202 0.67546105 0.33509752 0.5564978
0000e0 95 7c 25 3f 21 5b fe 3e 1e 51 0a 3f dd b6 2a 3f
       0.6464322 0.496789 0.54030025 0.6668528
0000f0 1c 1c 5e 3f cd 70 f3 3e 3d ce 33 3f 40 46 07 3f
       0.8676164 0.47546998 0.7023657 0.5284157

residual.0.block1.bn.bias f4 [64]
000000 71 8d 57 be 93 cd b0 be f3 16 ac bd d3 b4 df 3e
       -0.2105005 -0.3453184 -0.08402815 0.43692645
000010 5c a1 de 3e 38 cb ce 3e f7 c5 b1 be a2 70 1e be
       0.43482482 0.4038942 -0.34721348 -0.15472654
000020 ca 55 61 3e dd 76 32 3f 55 8b 07 be 15 55 39 bd
       0.22005382 0.6971262 -0.13236745 -0.045247156
000030 9a ab fc bd 38 f1 50 3e ab c1 63 3f c7 55 7d be
       -0.12337418 0.20404518 0.8896739 -0.24739753
000040 19 22 43 3e 48 a2 5c 3d 71 06 0f bd 5f 29 db 3e
       0.19055976 0.0538657 -0.034918252 0.42805
000050 53 cc 42 3d c9 b7 97 be 23 5d cb 3d a7 05 13 bf
       0.04755814 -0.29632404 0.09929874 -0.574305
000060 d0 59 46 be af 6f c6 3d 61 e7 84 be af 6e 75 3e
       -0.19370198 0.09689271 -0.25957778 0.23968004
000070 09 7f e5 bd e3 83 41 be 9c e4 6b be 84 0a 73 3e
       -0.11205871 -0.18897967 -0.23036426 0.2373448
000080 1b ee f9 bd 79 36 be be d9 0a 9f be 93 1a 26 bd
       -0.12203618 -0.37150934 -0.31062964 -0.040552687
000090 64 e3 9c be 4e d1 25 3e 18 69 fe 3d d9 f4 d9 bc
       -0.30642235 0.16193125 0.12422389 -0.02660601
0000a0 79 81 29 3e ef de a9 be 83 a7 3a bb da 1c 87 be
       0.16553296 -0.33177897 -0.0028481192 -0.263892
0000b0 cc d3 90 3d 6d fb a4 3e 76 15 9b 3c 39 a1 f3 bd
       0.07071647 0.32223073 0.018931132 -0.11895985
0000c0 91 88 80 bd 66 b9 10 bd 01 34 19 3e fd b3 90 3e
       -0.06276048 -0.03533306 0.14961244 0.2826232
0000d0 1c 9d b0 be bc 70 07 3e 77 be 49 3d 65 af 0c be
       -0.34494865 0.13226599 0.049253907 -0.13738783
0000e0 ad 60 0b 3f c6 b5 76 3e 36 62 ef bd 75 8a 28 3e
       0.5444439 0.24092779 -0.11688654 0.16459067
0000f0 4d bb b9 3d ff 8a a2 3d 36 b6 66 be be 35 61 be
       0.09068928 0.07936668 -0.22530445 -0.21993157

residual.0.block1.bn.running_mean f4 [64]
000000 46 b2 74 3d f4 bd 49 3d a9 09 ab bc 71 39 0c ba
       0.059740327 0.04925342 -0.02087863 -0.00053491356
000010 4b 16 1e 3d 22 c4 66 bc 26 59 28 bc 06 f9 63 3d
       0.03859548 -0.014084848 -0.010275161 0.05565741
000020 2a 05 8d 3d b3 f6 50 3c 81 5d 8c 3d 40 0d 85 3b
       0.068857506 0.01275413 0.06853772 0.0040604174
000030 a6 ad af bd 8f 8e 9f 3c 34 e4 96 3c 61 60 81 bd
       -0.08578043 0.019477157 0.018419363 -0.06317211
000040 37 3c e6 3d e9 4d b2 3d 9b 4f a8 bb 94 f2 c9 3d
       0.11241954 0.087062664 -0.005136443 0.09860721
000050 9a 5a 9e bd b8 17 84 3d 07 06 31 3d 6b a3 6c 3d
       -0.077321246 0.064498365 0.04321864 0.057773035
000060 34 97 a6 3c a6 c1 ef bd 31 77 2b 3c eb 6a 0b be
       0.020335771 -0.117068574 0.010465429 -0.13615005
000070 b5 36 38 bd 5d 63 45 3c 7d a5 41 ba 3c de 70 3d
       -0.044974048 0.012047616 -0.00073870254 0.05880569
000080 50 40 2f bc bd 16 d6 bb 42 f4 ad 3c 16 09 12 3c
       -0.010696486 -0.0065334723 0.021234635 0.008913299
000090 e8 ab b3 bc 88 a2 ff bb 78 47 62 bd ab de af bd
       -0.021932557 -0.0078013577 -0.05524394 -0.085873924
0000a0 20 6e a7 3d 21 aa cb 3c 24 ef ad bd 96 a3 12 3c
       0.081753016 0.024861397 -0.08492878 0.008950135
0000b0 bc e7 a7 3d bd 8c 96 bd 0a 1e 57 bd ba 3d 18 be
       0.08198497 -0.073510624 -0.05251888 -0.14867297
0000c0 4b b2 c4 bc 59 fc b6 bb 7a 16 64 bd b7 53 04 bc
       -0.024010798 -0.0055842814 -0.055685498 -0.0080766
0000d0 97 5e 5c bd ce 66 e3 3c 63 48 cf bc b0 ab c3 bd
       -0.053801145 0.027758982 -0.025303071 -0.09554231
0000e0 f7 2c 09 3d 59 8e 9f bc d6 e9 71 3d 91 2b 01 3d
       0.033490147 -0.019477056 0.059060894 0.03153569
0000f0 d3 10 a6 3c 55 30 92 3d e3 b1 87 bd b7 f7 b2 bb
       0.020271694 0.07138125 -0.06625726 -0.005461659

residual.0.block1.bn.running_var f4 [64]
000000 41 c6 e9 3a 3a 98 ef 39 bc 62 cb 39 7f 8b 95 3a
       0.0017835574 0.0004569905 0.0003879274 0.0011409371
000010 fa 7b 84 3a 9b 2e 8c 39 c4 ba 1c 3b 69 39 82 3a
       0.0010107749 0.00026737605 0.0023915032 0.0009935322
000020 93 11 36 3a 56 dc 3e 39 55 68 b5 3a 20 42 6b 3a
       0.0006945368 0.00018201894 0.0013840297 0.0008974392
000030 ca c3 34 3a 14 c0 72 3a 59 e0 ed 38 49 08 1a 3a
       0.000689563 0.0009260189 0.00011342829 0.00058758684
000040 f5 15 35 39 8d 3f cf 3a 9c c9 c5 3a 88 45 82 39
       0.00017269685 0.0015811786 0.0015089992 0.00024847337
000050 46 f8 4f 3a 6b d7 25 3a 79 b4 80 3a b4 24 cf 3a
       0.0007933419 0.000632635 0.000981941 0.0015803785
000060 49 78 ea 3a 5c 4e c3 3a f0 f5 d1 39 e0 0f 24 3b
       0.0017888631 0.0014900672 0.00040046824 0.0025033876
000070 2b 33 e3 3a 49 de 99 39 36 17 cc 3a 94 4c 81 3a
       0.0017333975 0.0002934805 0.0015570882 0.0009864741
000080 79 91 13 3a 8e a5 34 3a 9f c3 c8 39 c3 ac ae 39
       0.0005629282 0.00068911246 0.00038292722 0.00033316584
000090 bc 90 c9 39 2c 23 26 3a 43 00 3c 3a 5a 78 b7 3a
       0.00038445543 0.00063376385 0.000717167 0.001399766
0000a0 16 86 29 3b 96 37 94 3a f6 46 11 3b 96 4a b2 3a
       0.0025867275 0.001130807 0.002216754 0.0013602551
0000b0 ef 40 8f 3a c1 73 c8 39 0b ff 3f 3a e2 44 21 3b
       0.0010929386 0.00038233216 0.0007324076 0.0024607708
0000c0 ec 9d d9 3a 49 95 04 3a 83 47 1a 3a aa fe a7 3a
       0.001660285 0.00050576456 0.000588529 0.0012816985
0000d0 e7 69 00 39 b0 33 3e 3b c8 e9 92 39 23 7b 26 3b
       0.00012246483 0.0029022507 0.0002802147 0.0025402985
0000e0 f1 ac 4d 39 a8 cd 1c 3a 5a 0c bf 3a 6e 23 47 3b
       0.00019614749 0.0005981573 0.0014575825 0.0030386108
0000f0 7b cc 89 3a e9 60 82 3a 59 89 17 3b 76 90 04 39
       0.001051321 0.0009947094 0.0023122637 0.00012642317

residual.0.block1.act.weight f4 [64]
000000 02 62 a8 3e 1b 9a 20 3e 9c d1 af 3e 3d e6 58 3f
       0.32887274 0.15683787 0.34339607 0.84726316
000010 2a f1 ee 3e 75 aa 8f 3e bc 49 cb bd e1 f1 16 3e
       0.4666837 0.28059736 -0.09926173 0.14740707
000020 d0 cf 2b 3f 26 e1 64 3f 12 90 9f 3e 61 c8 fa 3e
       0.6711397 0.8940605 0.31164604 0.48981002
000030 01 bb 0c 3f fe d1 bd 3e 1d e3 37 3f 0a 42 07 3d
       0.54972845 0.37074274 0.7183092 0.033021964
000040 2f 78 4b 3f 6a 7f e1 3d a2 48 b0 3e c8 46 3c 3f
       0.7948026 0.110106304 0.34430414 0.73545504
000050 19 0e 00 3f b8 5e 59 3f ec d3 5c 3f 8a 47 94 3a
       0.5002151 0.84910154 0.8626087 0.0011312824
000060 99 97 b9 3d 48 87 f3 3e 59 ba 37 3e 8c 87 8c 3e
       0.09062118 0.4756415 0.1794218 0.27447164
000070 25 de 1b 3f 2b 60 68 3e 58 16 ab bc 4e 63 14 3f
       0.6088584 0.22692935 -0.020884678 0.57964027
000080 f3 7e 84 bd ff 0f fd 3c 5c a4 b4 3e dc 4b 1c 3f
       -0.06469526 0.030891417 0.35281646 0.6105325
000090 f7 37 a5 3e 73 ca 31 3f 25 8e 66 3f 2e 50 31 3e
       0.3226926 0.6944954 0.90060645 0.17315742
0000a0 1b 0f c7 3e 3c 24 47 3e 95 bb f6 3e 4a 51 fa 3e
       0.38878712 0.19447416 0.4818999 0.48890144
0000b0 b4 83 b4 3e 39 ad 60 3f 14 1c 1b 3f 27 03 b4 3e
       0.35256732 0.87764317 0.6058972 0.35158655
0000c0 ce a0 a8 3e b6 29 9d 3e 0f d3 f3 3e f8 46 7c 3e
       0.32935184 0.30695885 0.47621962 0.24636447
0000d0 73 4b 31 3d ac 0d 08 3e e0 78 29 3e 14 68 09 be
       0.043284845 0.13286465 0.16550016 -0.13418609
0000e0 7c ba 64 3f f3 e5 1a 3f b8 1a f8 3d f8 95 e1 bc
       0.8934705 0.60507125 0.12114471 -0.027537331
0000f0 7d 61 77 3f 70 7d a2 bc a2 a6 43 3f 4d 67 3d 3e
       0.9663313 -0.019835204 0.76426136 0.18496437

residual.0.block2.cnn.depthwise.weight f4 [64, 1, 3, 3]
000000 3b dd 30 be f1 6b 61 3e 34 8e 43 3e a6 43 4c be
       -0.17271893 0.22013833 0.19097215 -0.19947681
000010 9a 91 2e 3e 18 2d 85 bc c2 2a 2c be db a5 db bd
       0.1704773 -0.016256854 -0.16813186 -0.10724994
000020 32 05 ae bc f7 c8 e4 3d 64 af 19 3e c4 ac c1 3d
       -0.021242712 0.111711435 0.15008312 0.094567806
000030 25 61 19 be 11 22 3c 3e a5 e5 15 3e 32 83 03 3e
       -0.14978464 0.1837237 0.14638384 0.12843016
000040 53 06 dd 38 64 48 b4 3d 8f 19 5e 3d a5 11 3f 3d
       0.00010539279 0.0880287 0.054223593 0.046647687
000050 fa 60 82 3d b6 3c 3e 3e a0 06 96 3e 3c 0f 88 bd
       0.06366153 0.18577847 0.2930193 -0.06643531
000060 5f f2 9b 3d 3d 54 55 bc 6e 2e a5 3d 2c 27 48 be
       0.07614588 -0.013020572 0.080654964 -0.19546193
000070 d4 ae b9 bc 6a 16 63 3e 8b 82 4b bd 8b 9f e7 bc
       -0.022666372 0.22176519 -0.049685042 -0.028274318
000080 f1 f1 b4 be 06 5b 2a 3b c5 b1 7f 3e 02 d4 2e bc
       -0.35340837 0.0025994196 0.24970157 -0.010670664
000090 aa c7 eb 3d 87 05 a1 bc 8c d0 c3 bd bd 9d e1 bc
       0.11512692 -0.019655956 -0.095612615 -0.027541036
0000a0 8a 02 8b 3e 23 8e 35 3e 26 d6 99 3c 8a 5f ea bd
       0.27150375 0.17730002 0.018778872 -0.11444004
0000b0 61 0b 91 be 9e a1 59 bd 34 f3 9c 3e fc b6 e5 3d
       -0.28328994 -0.053132646 0.306543 0.11216542
0000c0 0a 21 00 be 0b bf 87 3d fb 36 10 be d9 5b bd 3d
       -0.12512603 0.066282354 -0.14083473 0.09246034
0000d0 6b 13 03 be c0 7c a0 3a 83 f0 e4 bd 49 1a 0d bc
       -0.12800376 0.001224421 -0.111786865 -0.008612224
0000e0 b7 46 df bd 38 ff 8d be 55 5c fa bd 79 bb f7 bd
       -0.1090216 -0.2773378 -0.12224642 -0.120963044
0000f0 c5 09 9c 3d a8 1e f0 bd 80 79 dc bd 28 f6 8c bd
       0.07619051 -0.11724597 -0.10765362 -0.06882888
000100 20 89 40 bd 52 5a 07 be 35 2a 57 3b c1 50 30 3e
       -0.047005773 -0.13218048 0.0032831554 0.17218305
000110 1e b8 31 3e d3 d0 3b be 66 d4 2e be 94 c5 c0 bd
       0.17355391 -0.18341379 -0.17073211 -0.09412685
000120 1e 3d fc 3c d5 7b 99 bd c1 6c 0d be 14 5f ad 3d
       0.030790862 -0.07494322 -0.13811018 0.084654
000130 c8 bd ba 3d 4b 62 be be a6 96 d1 3d ed 05 03 3d
       0.09118229 -0.37184367 0.10233812 0.031988073
000140 a6 db 85 3e ce a8 10 3e aa a2 c3 bd 67 75 8c bd
       0.2614414 0.14126894 -0.0955251 -0.0685833
000150 c4 10 bc be da 00 bb bd 8b 5c 6f 3e f0 58 db 3d
       -0.3673154 -0.09131022 0.23375146 0.10710323
000160 14 cc 50 be 79 af 4d 3e fe ba 9f 3b 2a 56 dc bd
       -0.2039035 0.20086469 0.004874586 -0.10758622
000170 b4 ea fc bc 16 0a ef 3c 22 df 96 be 86 8a 89 bd
       -0.030873634 0.029179614 -0.29467112 -0.067158744
000180 ac fd a5 bd 90 40 2f be be 38 3e bc bd 73 ee 3d
       -0.08105025 -0.17114472 -0.011610208 0.11643169
000190 48 b7 80 3d e6 0e 0e 3e 86 3e 46 bd c2 22 ae 3d
       0.06284958 0.13872871 -0.04839947 0.08502723
0001a0 f6 4e a7 3c fe f1 3b 3d 07 b5 79 3e 9a 65 84 be
       0.020423394 0.04588508 0.24385463 -0.25858766
0001b0 e9 95 8b bd 32 09 c6 3d dc f0 db bd 36 31 99 3d
       -0.068157025 0.096697226 -0.107393 0.07480089
0001c0 12 ed 5a be 92 f6 a1 be 21 cf 04 3e d0 92 66 3e
       -0.21379498 -0.3163343 0.12969638 0.22516942
0001d0 8d 35 54 3b d3 82 e3 bc bd a3 15 be c4 5d 98 3e
       0.0032380552 -0.027772343 -0.14613242 0.29759037
0001e0 f1 ff 88 be 43 24 05 be 86 59 47 bd 27 d8 0a 3c
       -0.26757768 -0.13002114 -0.04866936 0.008474386
0001f0 3e 28 09 3e d0 76 fd 3d e6 00 1d be 61 81 74 be
       0.13394257 0.12376177 -0.15332374 -0.23877479
000200 29 df aa 3d da bf bd bc 31 05 43 3e 6f 6f be bd
       0.08343346 -0.023162771 0.19044949 -0.09298598
000210 1d ac 99 3d 22 f9 34 be 4c b3 68 3e 21 73 a7 3d
       0.07503531 -0.17673162 0.22724646 0.08176256
000220 81 b4 52 3e 6b 76 65 3d 50 8a 2e 3d 04 95 8c 3d
       0.2057667 0.056021135 0.042612374 0.0686436
000230 26 46 93 3d d5 8b 2f be 42 78 8b bd 57 ee 6f be
       0.07191114 -0.17143185 -0.06810047 -0.23430763
000240 83 a1 12 be d1 c9 4b 3e b2 38 45 be 2a 25 08 3e
       -0.14319424 0.19901206 -0.19259909 0.13295427
000250 b3 9a 0b 3c d6 60 06 be fd 88 fc 3d 6a d1 d2 bd
       0.00852077 -0.13122877 0.12330816 -0.10293849
000260 eb 2a 84 3e 8e ba a7 3d 11 20 45 3e d6 66 15 3e
       0.25813994 0.08189879 0.19250514 0.1459001
000270 ca 6f 91 be 87 41 04 3e 75 58 cb bb 79 c7 15 3e
       -0.284056 0.12915622 -0.0062056133 0.14626874
000280 c0 ab e5 bd 94 bb 49 bd 6b 0d 31 3e 62 df 70 bb
       -0.11214399 -0.049251154 0.17290275 -0.003675424
000290 04 5b 66 3c 88 23 31 be a5 40 ff bd 3e 65 11 be
       0.014059786 -0.1729871 -0.12463502 -0.14198777
0002a0 ef 78 05 3e b7 5c 14 be 93 c2 79 3d 84 88 71 3c
       0.13034414 -0.14488493 0.060976576 0.0147420205
0002b0 9b 5a f0 3c 7f 91 ac bc 56 50 00 3e d3 dc 35 be
       0.029340079 -0.021065472 0.12530646 -0.17760019
0002c0 d6 ab 86 3e 3c 1a 1b be 80 73 29 3c a8 2a 8b 3e
       0.26302975 -0.15146726 0.010342479 0.27180982
0002d0 5e d2 82 3d 52 ec aa 3d b2 1e bc bd d2 36 31 bd
       0.063877806 0.08345856 -0.09185542 -0.04326517
0002e0 1e 46 c3 bb 3e fa 23 3e df 18 a1 3d f3 cc 58 3e
       -0.0059592864 0.16013429 0.07866072 0.21171932
0002f0 c7 ba b0 3d 47 a3 15 be 8d 59 a8 3e 82 0f 40 bc
       0.08629375 -0.14613067 0.32880822 -0.011722447
000300 b0 7e d6 3d 8e a8 34 3e f3 14 3a 3e 95 cc a8 bd
       0.104733825 0.17642424 0.18172054 -0.08242146
000310 0b 8c f9 3d 8d 5e ff bd 84 01 85 3e dc 00 7d be
       0.12184914 -0.12469206 0.2597772 -0.24707359
000320 3e 7c c7 3d 4a 71 51 be 80 30 6c be c9 a8 6a 3e
       0.09740494 -0.20453373 -0.23065376 0.22915949
000330 3b 9a ab 3b c8 80 39 3e 83 ef b7 bd dd f7 15 bc
       0.0052368916 0.18115532 -0.0898123 -0.0091533335
000340 f5 ad 08 be de 13 1b be 34 1c 8b be 68 6c b8 3e
       -0.1334761 -0.15144297 -0.27169955 0.36020207
000350 5f 49 15 3d d1 db e8 3c 23 aa a5 bd 27 76 51 3e
       0.036446925 0.02842513 -0.08089092 0.20455228
000360 c5 30 13 3c 2d 8d 41 3e 92 55 34 3e 79 46 2b 3e
       0.0089837955 0.1890151 0.17610767 0.16726102
000370 80 9a 6e 3d f2 86 4a be 5f f3 3b bd 88 5b 89 3d
       0.05825281 -0.1977804 -0.045886394 0.06706911
000380 e8 71 a1 be 8a dd 78 3d cc 74 55 be 32 ae c3 bb
       -0.31532216 0.06075815 -0.20845336 -0.0059716934
000390 2a d7 65 3e e5 70 87 be 1a 91 52 be 5a 9a 27 3b
       0.2244536 -0.2645332 -0.20563164 0.0025574178
0003a0 45 4f 2d be c6 d7 02 3d e8 71 ac bd c0 3c f6 bd
       -0.1692477 0.03194406 -0.084201634 -0.12023306
0003b0 c8 86 69 3e c7 08 69 3e 66 df b8 3c fe 9f 56 3d
       0.22805321 0.22757255 0.022567462 0.052398674
0003c0 f1 12 73 bd af 7e 01 3e 8b 7c f7 3c dc 2c 23 be
       -0.059344236 0.12645982 0.030210754 -0.15935081
0003d0 76 90 45 bd b5 65 29 be ed c7 2e 3e 3e fb 8d 3c
       -0.04823347 -0.16542704 0.17068453 0.017331716
0003e0 a0 ba 46 be 06 3f 7c 3e fe 8a 2c 3e 00 2c 82 bb
       -0.1940713 0.24633417 0.16849896 -0.0039725304
0003f0 90 77 08 3c b7 c2 33 be 50 59 f6 bd bc 6e 4e 3e
       0.008329287 -0.17554747 -0.12028754 0.2015943
